Model: "sequential"
+--------------------------------------------------------------------------+
| Layer (type)                    | Output Shape           |       Param # |
|---------------------------------+------------------------+---------------|
| conv2d (Conv2D)                 | (None, 22, 256, 8)     |           520 |
|---------------------------------+------------------------+---------------|
| batch_normalization             | (None, 22, 256, 8)     |            32 |
| (BatchNormalization)            |                        |               |
|---------------------------------+------------------------+---------------|
| depthwise_conv2d                | (None, 1, 256, 16)     |           352 |
| (DepthwiseConv2D)               |                        |               |
|---------------------------------+------------------------+---------------|
| batch_normalization_1           | (None, 1, 256, 16)     |            64 |
| (BatchNormalization)            |                        |               |
|---------------------------------+------------------------+---------------|
| activation (Activation)         | (None, 1, 256, 16)     |             0 |
|---------------------------------+------------------------+---------------|
| average_pooling2d               | (None, 1, 64, 16)      |             0 |
| (AveragePooling2D)              |                        |               |
|---------------------------------+------------------------+---------------|
| dropout (Dropout)               | (None, 1, 64, 16)      |             0 |
|---------------------------------+------------------------+---------------|
| separable_conv2d                | (None, 1, 64, 16)      |           528 |
| (SeparableConv2D)               |                        |               |
|---------------------------------+------------------------+---------------|
| batch_normalization_2           | (None, 1, 64, 16)      |            64 |
| (BatchNormalization)            |                        |               |
|---------------------------------+------------------------+---------------|
| activation_1 (Activation)       | (None, 1, 64, 16)      |             0 |
|---------------------------------+------------------------+---------------|
| average_pooling2d_1             | (None, 1, 8, 16)       |             0 |
| (AveragePooling2D)              |                        |               |
|---------------------------------+------------------------+---------------|
| dropout_1 (Dropout)             | (None, 1, 8, 16)       |             0 |
|---------------------------------+------------------------+---------------|
| flatten (Flatten)               | (None, 128)            |             0 |
|---------------------------------+------------------------+---------------|
| dense (Dense)                   | (None, 4)              |           516 |
+--------------------------------------------------------------------------+
 Total params: 2,076 (8.11 KB)
 Trainable params: 1,996 (7.80 KB)
 Non-trainable params: 80 (320.00 B)

